Claire_Not_Obscur_AI_Project/Assets/NN.onnx (onnx, 53806 bytes, 8 tensors)

network.0.weight f4 [128, 19]
-0.07420717 0.02526357 -0.066391535 0.008521109 0.06739525 -0.18079926 -0.03163076 0.12240693
-0.078265406 0.17955546 0.038128946 -0.5472783 0.26327154 0.01494453 0.17457424 0.08131809
0.062337946 0.052062493 0.16742738 0.0035843696 -0.049335506 -0.0088561755 -0.1036463 0.13565436
-0.068906754 -0.4229845 -0.2190196 0.21609871 -0.12213373 -0.03286258 0.3911682 -0.113428414
-0.04234308 -0.18468313 -0.4058601 -0.05921505 0.20662339 0.18389358 -0.05712764 0.2499991
-0.23518237 -0.020262964 -0.13109943 -0.13479912 -0.0868716 0.03804943 -0.09417744 -0.017238576
-0.3859177 -0.17932165 0.08000431 -0.3699594 -0.21146284 -0.113225415 -0.1416741 -0.03451491
0.07003989 -0.20356245 -0.06368998 -0.041668035 -0.088752575 -0.563319 0.028360954 -0.1807747
-0.19373038 0.16137582 -0.10067846 -0.044716645 0.2173819 0.16926527 -0.24093819 0.12556362
0.15778396 -0.20143706 0.16475505 -0.5488799 0.11361177 -0.060643125 -0.2164661 -0.097997956
0.15089622 0.013825179 -0.49387386 -0.19223306 -0.12738156 -0.14002825 0.53222495 0.32752898
0.008984194 0.011764276 -0.043751344 0.15723284 0.11470636 -0.04057785 0.09515754 -0.06884864
-0.09487562 0.11103238 -0.24762821 -0.23448314 0.07785665 0.029835593 0.099317364 -0.22111897
-0.024801277 0.04842861 0.06768299 0.11844676 -0.10318827 0.15666041 -0.3013103 0.14583887
-0.12657917 0.40236446 0.20000507 0.14736173 -0.11596442 -0.17140542 0.1575068 0.15572587
0.11229313 0.18395825 0.15347062 -0.006232085 -0.5312703 -0.3647939 0.26736152 -0.3897744
0.03893891 -0.12607518 0.072496705 -0.18450347 -0.19929586 -0.25714588 -0.04694559 -0.14501761
0.14000733 0.04345675 -0.0014290131 0.06741668 -0.03103952 0.091243275 -0.20246193 0.122289546
-0.1846903 0.17892604 -0.16571203 -0.1735112 -0.07392013 0.037850715 -0.09227817 0.5884714
0.2767999 -0.29407316 -0.13959017 0.058421075 -0.018749367 0.071974136 0.07647335 -0.013292212
0.18366545 0.37347424 0.16397321 0.14102364 -0.2633135 0.019619076 0.12788674 -0.24011815
-0.13387719 0.054077856 -0.5325978 0.036941916 0.02187834 -0.32122362 -0.07347403 -0.033348784
-0.11123819 0.38829246 -0.17872342 0.07269307 0.11710802 0.5791927 -0.11407249 -0.4164202
0.10395908 -0.0025243748 -0.05181582 -0.026916983 0.22582042 0.04561698 0.016681876 0.33515772
0.07991075 -0.023258766 -0.104513325 0.21895052 0.06736514 -0.106629945 -0.06485379 -0.18500566
-0.3005236 -0.370754 0.21620353 -0.03939944 0.005944303 -0.07069356 0.18222436 0.15917237
0.3722075 -0.373767 0.040099114 0.014234488 -0.06247506 -0.04424192 -0.13246407 0.0051856344
-0.07537322 0.1556998 0.39609665 0.08281994 0.032853704 -0.031789888 -0.43922326 -0.22216201
0.12542102 0.061495915 -0.09846853 -0.47154835 0.41391543 0.013677405 -0.35242456 -0.031294733
-0.19090612 0.22483483 -0.17407316 -0.106395535 0.16634578 0.34607428 0.019407352 -0.47666916
-0.170034 -0.22355478 -0.06688934 0.041677333 0.05723628 0.1231589 0.1158672 -0.27505577
-0.2545422 -0.28997743 0.095908016 0.04718758 0.14323442 -0.17676304 0.08641044 -0.055020887
00000000: eef9 97bd 8cf5 ce3c 49f8 87bd 1f9c 0b3c
00000010: 8506 8a3d 7123 39be 418f 01bd 7cb0 fa3d
00000020: 9d49 a0bd 63dd 373e 192d 1c3d 6e1a 0cbf
00000030: 87cb 863e e7d9 743c 97c3 323e 198a a63d
00000040: 1356 7f3d 7b3f 553d 1572 2b3e bee7 6a3b
00000050: 0714 4abd 7e19 11bc 8344 d4bd fae8 0a3e
00000060: fc1e 8dbd 6d91 d8be ad46 60be fb48 5d3e
00000070: 4021 fabd ea9a 06bd 3347 c83e 284d e8bd
00000080: f06f 2dbd 931d 3dbe e5cc cfbe 7b8b 72bd
00000090: 1595 533e 994e 3c3e acfe 69bd c4ff 7f3e
000000a0: a6d3 70be 84fe a5bc ee3e 06be c808 0abe
000000b0: bde9 b1bd b8d9 1b3d 1ae0 c0bd ea37 8dbc
000000c0: 0197 c5be 18a0 37be 4dd9 a33d 526b bdbe
000000d0: b789 58be bae2 e7bd 0413 11be 825f 0dbd
000000e0: 1371 8f3d ad72 50be e46f 82bd 1aac 2abd
000000f0: e9c3 b5bd ad35 10bf 3b55 e83c 011d 39be
00000100: 4261 46be b43f 253e 8230 cebd cd28 37bd
00000110: 5c99 5e3e e053 2d3e 80b8 76be c093 003e
00000120: 1e92 213e 8445 4ebe 8cb5 283e 6583 0cbf
00000130: 4aad e83d ed64 78bd 4aa9 5dbe 27b3 c8bd
00000140: 8a84 1a3e 0183 623c 09dd fcbe bed8 44be
00000150: 5070 02be 9163 0fbe e53f 083f e1b1 a73e
00000160: 7132 133c f3be 403c 9c34 33bd a501 213e
00000170: 2beb ea3d f634 26bd f5e1 c23d 8400 8dbd
00000180: 264e c2bd f264 e33d 4092 7dbe 591c 70be
00000190: 4f73 9f3d c669 f43c e766 cb3d 036d 62be
000001a0: 0c2c cbbc 145d 463d 619d 8a3d 3794 f23d
000001b0: 5f54 d3bd 966b 203e 5845 9abe c956 153e
000001c0: f89d 01be b702 ce3e 21ce 4c3e fee5 163e
000001d0: c17e edbd e784 2fbe 7649 213e 9a76 1f3e
000001e0: f1f9 e53d 8d5f 3c3e 6727 1d3e 8536 ccbb
000001f0: 5501 08bf 44c6 babe 9ce3 883e 8390 c7be
00000200: 687e 1f3d da19 01be 2779 943d 7aee 3cbe
00000210: 3714 4cbe a0a8 83be 054a 40bd 7f7f 14be
00000220: 155e 0f3e b5ff 313d b94d bbba c211 8a3d
00000230: 9746 febc c1dd ba3d 2e52 4fbe f172 fa3d
00000240: 741f 3dbe 6338 373e 6ab0 29be ecac 31be
00000250: 7063 97bd 5a09 1b3d 56fc bcbd 10a6 163f
00000260: b7b8 8d3e c290 96be baf0 0ebe f04a 6f3d
00000270: 4698 99bc 2d67 933d 0f9e 9c3d 94c7 59bc
00000280: cc12 3c3e 0438 bf3e 98e8 273e 8068 103e
00000290: 07d1 86be 2fb8 a03c bef4 023e 88e1 75be
000002a0: 1a17 09be be80 5d3d 5458 08bf 6850 173d
000002b0: 343a b33c 6c77 a4be 8d79 96bd bc98 08bd
000002c0: d9d0 e3bd 45ce c63e 4603 37be 1be0 943d
000002d0: 54d6 ef3d f945 143f d69e e9bd 0735 d5be
000002e0: 80e8 d43d fb6f 25bb d33c 54bd 0181 dcbc
000002f0: 783d 673e dfd8 3a3d 6ea8 883c cb99 ab3e
00000300: 3fa8 a33d 2b89 bebc 150b d6bd 9134 603e
00000310: bcf6 893d cd60 dabd 10d2 84bd 2072 3dbe
00000320: 3bde 99be 78d3 bdbe 7564 5d3e 4f61 21bd
00000330: 6dc8 c23b c9c7 90bd 0699 3a3e 15fe 223e
00000340: fb91 be3e 635e bfbe f83e 243d c537 693c
00000350: d9e5 7fbd 0437 35bd a9a4 07be 41ec a93b
00000360: 465d 9abd c56f 1f3e 2ecd ca3e 809d a93d
00000370: 9b91 063d 1d36 02bd dfe1 e0be 707e 63be
00000380: 5e6e 003e 24e3 7b3d dea9 c9bd c96e f1be
00000390: b9ec d33e 3217 603c fe70 b4be e82e 00bd
000003a0: e57c 43be 1a3b 663e 3c40 32be e7e5 d9bd
000003b0: 8c56 2a3e a630 b13e 2bfc 9e3c fb0d f4be
000003c0: 651d 2ebe 8beb 64be 47fd 88bd dab5 2a3d
000003d0: 9770 6a3d bc3a fc3d c84b ed3d 1cd4 8cbe
000003e0: 5b53 82be ec77 94be 6c6b c43d c447 413d
000003f0: 0bac 123e 5f01 35be f5f7 b03d 955d 61bd

network.0.bias f4 [128]
-0.08978077 -0.039964065 0.17248335 0.2743128 -0.17269358 -0.09435974 -0.1520548 -0.012562506
-0.3188034 0.25178912 -0.2025617 0.13253984 -0.048053138 0.04240269 -0.06330404 0.24905954
-0.1615223 -0.24693932 0.014604641 -0.19799776 0.06549791 0.18173563 0.0038865437 -0.19873895
0.21392722 -0.14330088 0.025473451 -0.20363937 0.03810677 0.14491612 0.3843823 0.3086757
-0.028306723 0.23495832 -0.3541279 -0.14421791 0.2186584 0.014430302 -0.12755944 0.07854552
-0.106583625 -0.36500078 -0.32238263 0.035374194 0.08738836 -0.12135435 0.20890477 -0.25540584
0.20055676 0.20980875 0.025640862 -0.1469558 -0.09105513 -0.16068923 0.02512461 -0.040248442
0.05553853 -0.43429837 -0.12639078 0.15337001 -0.25462002 0.15846795 0.12626776 0.2100174
-0.020230003 0.16844729 0.1649928 -0.22356458 -0.06357549 0.11661442 -0.25528613 0.1761872
0.12956817 -0.14409482 0.0028989033 0.13306472 0.2929993 -0.007325662 0.09546691 0.22026064
-0.12981494 -0.28625625 0.07637855 0.002288078 -0.18370354 0.08023152 -0.23921913 -0.033407383
-0.17050835 0.14850813 0.16523369 -0.12827706 0.08168103 -0.3829799 -0.0071081766 0.14732596
-0.3913836 -0.014840645 0.1848192 0.012767103 0.030481705 0.028646106 -0.15053764 -0.19049048
-0.083157994 -0.12994592 0.012583877 -0.11639979 -0.010712073 0.29474556 -0.07191793 -0.110361956
0.08348038 -0.1315264 -0.25054774 0.09359767 -0.040732894 0.07969821 -0.14377071 0.012641558
-0.014485447 -0.055792548 0.03872632 0.30647033 0.14849089 0.15320057 0.26820603 -0.016673628
00000000: fbde b7bd 5cb1 23bd 7a9f 303e ba72 8c3e
00000010: 96d6 30be ae3f c1bd 41b4 1bbe f8d2 4dbc
00000020: 333a a3be 81ea 803e 566c 4fbe 86b8 073e
00000030: 5ed3 44bd 71ae 2d3d 8ca5 81bd 7709 7f3e
00000040: 1a66 25be a9dd 7cbe 4e48 6f3c edbf 4abe
00000050: c523 863d e818 3a3e 62b5 7e3b 3982 4bbe
00000060: bd0f 5b3e 77bd 12be b3ad d03c d786 50be
00000070: d815 1c3d e464 143e c2cd c43e be0a 9e3e
00000080: 80e3 e7bc ea98 703e 4150 b5be dcad 13be
00000090: fde7 5f3e 136d 6c3c f19e 02be 79dc a03d
000000a0: 8448 dabd 62e1 babe 560f a5be 88e4 103d
000000b0: abf8 b23d a188 f8bd 22eb 553e 8ec4 82be
000000c0: c05e 4d3e 1bd8 563e c90c d23c 957b 16be
000000d0: 1d7b babd b88b 24be 20d2 cd3c 8ddb 24bd
000000e0: 5f7c 633d 5b5c debe 966c 01be 070d 1d3e
000000f0: 8e5d 82be 6c45 223e 564c 013e cd0e 573e
00000100: 64b9 a5bc 727d 2c3e dff3 283e 1dee 64be
00000110: de33 82bd 8bd3 ee3d ddb4 82be 6b6a 343e
00000120: 85ad 043e 988d 13be 87fb 3d3b 1e42 083e
00000130: 0104 963e 1b0c f0bb 2884 c33d 018c 613e
00000140: 35ee 04be 2e90 92be 5b6c 9c3d 94f3 153b
00000150: c81c 3cbe 6c50 a43d dcf5 74be 2ed6 08bd
00000160: be99 2ebe 8412 183e 0533 293e 105b 03be
00000170: 6248 a73d f115 c4be b5eb e8bb 9edc 163e
00000180: 6e63 c8be 2d26 73bc 3f41 3d3e 1c2d 513c
00000190: c5b4 f93c 3dab ea3c 8a26 1abe f00f 43be
000001a0: bd4e aabd 8b10 05be 9b2c 4e3c 0363 eebd
000001b0: b181 2fbc e4e8 963e b549 93bd 7305 e2bd
000001c0: c3f7 aa3d dbae 06be cb47 80be 23b0 bf3d
000001d0: 89d7 26bd d138 a33d a138 13be 8a1e 4f3c
000001e0: 5e54 6dbc ba86 64bd 7d9f 1e3d aee9 9c3e
000001f0: ff0d 183e 9ce0 1c3e 4d52 893e 2297 88bc

network.3.weight f4 [64, 128]
0.034696963 -0.00032271084 -0.0044297297 -0.10097636 -0.16975065 -0.082448125 0.004735156 -0.12946592
0.042731944 -0.08399247 0.0641872 0.0042669647 -0.08773661 -0.08266794 -0.005109299 -0.008547623
0.0041901087 0.0027219127 -0.011756302 -0.020054853 -0.082177944 -0.05649836 -0.058182426 -0.09473106
-0.09584673 0.003064318 0.06937774 -0.01593187 -0.098809004 -0.104349054 -0.048551477 -0.021058653
-0.019391349 0.021784253 -0.0715076 -0.00056950556 -0.108242914 -0.019985184 0.020065397 -0.06689775
-0.023372753 0.010261246 -0.09908514 0.084507614 0.06005395 0.0613369 -0.12636924 -0.08590951
-0.101688504 -0.06481678 0.013041435 0.031631965 -0.05101643 0.019257374 -0.037963185 -0.07549538
0.0058108945 -0.15034431 -0.070334025 0.059675477 -0.14232093 -0.0019831979 -0.0026920384 -0.025288938
0.005416636 -0.019850144 0.05148528 -0.08121634 -0.013369449 -0.055502456 0.022957888 -0.0053204373
-0.01234203 0.0432771 -0.01387465 0.060060848 0.014640019 -0.06864486 -0.0060539553 0.013015898
-0.085835375 -0.15329048 0.061124712 -0.12101814 -0.05298645 0.11083454 -0.018199073 -0.07768055
-0.05133879 -0.054237567 -0.007708132 -0.14199357 -0.07533425 -0.026211718 -0.14703888 0.009545974
-0.043826398 -0.0039397585 -0.07169182 0.031726066 0.034917902 -0.02580047 -0.011663194 -0.031429674
-0.15924294 -0.021114085 -0.03718967 0.0505684 -0.004680366 -0.08400639 -0.02465753 -0.07648714
-0.061838824 -0.1441621 -0.06837041 -0.05924888 -0.08271357 -0.1002674 -0.10005849 -0.12214383
-0.06566071 0.03016858 -0.0059905127 -0.14244746 0.03277095 -0.101491086 -0.026578223 -0.02360302
0.24391584 -0.3019684 -0.16519284 -0.08305412 -0.06845876 0.00972609 -0.01609835 0.060271055
-0.1027192 -0.19677275 0.09695288 0.008682447 -0.022268968 -0.09177265 0.0018910667 -0.27877796
-0.24448912 -0.025505763 0.03239166 0.10720507 -0.13160904 0.024483794 0.0036153367 -0.08153821
-0.021921461 -0.072723374 -0.21778968 0.079888925 -0.034099814 0.11761565 0.24421641 0.19612789
-0.19699584 -0.0053509264 -0.30598596 0.090951346 -0.0031363745 -0.22279106 0.03144819 -0.093936935
-0.25705945 -0.41632786 -0.2858567 -0.43030423 -0.1955335 0.26485178 -0.26377055 0.13199146
-0.14989491 0.15887323 0.24550341 -0.28683957 -0.112269945 0.3184 0.11281107 -0.106858686
-0.21569052 -0.21893908 0.019274017 0.13715032 -0.254029 0.22064129 0.18475309 0.28575653
0.2013782 0.2544736 0.40920943 -0.018896235 0.086965665 0.8595898 0.032853555 0.08094072
0.3789837 -0.28487304 0.057382744 -0.091527246 0.39225814 -0.18379925 0.42483506 0.3015168
0.14234431 0.03550463 0.19290078 0.472993 -0.6641282 -0.3441627 -0.06886492 -0.25850773
0.075589515 -0.115832806 -0.0450702 0.05482537 0.44442925 -0.007383081 0.02306478 -0.25852588
-0.1647583 -0.76004076 0.49625352 0.014118174 -0.5439928 0.40315828 0.055601377 0.00041524577
-0.01687745 0.1450283 -0.06383975 -0.059346054 -0.18614748 0.09236175 -0.061070506 -0.023463594
0.20293632 -0.13208385 0.021889497 0.26511398 0.18033771 -0.007876759 -0.104191475 -0.025412174
0.11542468 -0.2817405 -0.040415227 0.038851302 0.1728919 0.33396366 0.05270574 0.0016769518
00000000: 671e 0e3d 8431 a9b9 4427 91bb b2cc cebd
00000010: 1dd3 2dbe 90da a8bd 5e29 9b3b b792 04be
00000020: b107 2f3d 3e04 acbd 9474 833d e5d1 8b3b
00000030: 40af b3bd cf4d a9bd e86b a7bb 540b 0cbc
00000040: 2e4d 893b 1e62 323b 819d 40bc 134a a4bc
00000050: e94c a8bd d36a 67bd b250 6ebd 5c02 c2bd
00000060: 4a4b c4bd bad2 483b eb15 8e3d 8e83 82bc
00000070: 605c cabd f5b4 d5bd eadd 46bd 3283 acbc
00000080: 9bda 9ebc e474 b23c 9472 92bd df4a 15ba
00000090: 76ae ddbd f8b7 a3bc 3060 a43c b001 89bd
000000a0: 3778 bfbc c91e 283c 26ed cabd 5412 ad3d
000000b0: 21fb 753d 673c 7b3d f066 01be 53f1 afbd
000000c0: 1042 d0bd a9be 84bd beab 553c 8590 013d
000000d0: 9bf6 50bd a4c1 9d3c 497f 1bbd 529d 9abd
000000e0: 5169 be3b dcf3 19be 490b 90bd 466e 743d
000000f0: 94bc 11be 8af8 01bb e96c 30bb bf2a cfbc
00000100: 097e b13b c59c a2bc 3be2 523d c154 a6bd
00000110: 890b 5bbc 8b56 63bd 2e12 bc3c 1057 aebb
00000120: 3a36 4abc 5443 313d 8052 63bc 5d02 763d
00000130: b1dc 6f3c ad95 8cbd 4260 c6bb a240 553c
00000140: 75ca afbd 2ef8 1cbe e85d 7a3d 5cd8 f7bd
00000150: 5208 59bd 38fd e23d 3916 95bc fb16 9fbd
00000160: a048 52bd 3628 5ebd 7f94 fcbb c366 11be
00000170: d848 9abd f5b9 d6bc 5c91 16be b866 1c3c
00000180: 4f83 33bd 1719 81bb 29d3 92bd 31f3 013d
00000190: 1306 0f3d 825b d3bc fb16 3fbc 67bc 00bd
000001a0: 9510 23be 72f7 acbc 3254 18bd d020 4f3d
000001b0: c15d 99bb 8b0b acbd 97fe c9bc 4aa5 9cbd
000001c0: b54a 7dbd 3b9f 13be c905 8cbd f4ae 72bd
000001d0: bb65 a9bd ff58 cdbd 77eb ccbd 8b26 fabd
000001e0: 1f79 86bd 1924 f73c 104c c4bb bfdd 11be
000001f0: d53a 063d 8fda cfbd 93ba d9bc 1f5b c1bc
00000200: 13c5 793e 9a9b 9abe 5028 29be 4718 aabd
00000210: 1b34 8cbd 2e5a 1f3c b0e0 83bc c8de 763d
00000220: 725e d2bd cc7e 49be 3b8f c63d d240 0e3c
00000230: 696d b6bc 4df3 bbbd abdd f73a fcbb 8ebe
00000240: 5b5b 7abe 76f1 d0bc 1ead 043d 558e db3d
00000250: 85c4 06be 3d92 c83c 49ef 6c3b 81fd a6bd
00000260: a394 b3bc feef 94bd 4204 5fbe ce9c a33d
00000270: 3fac 0bbd 79e0 f03d de13 7a3e c0d5 483e
00000280: 47b9 49be d356 afbb 31aa 9cbe b344 ba3d
00000290: a28b 4dbb 5723 64be d1cf 003d 0262 c0bd
000002a0: 4c9d 83be ed28 d5be cf5b 92be d650 dcbe
000002b0: ef39 48be a79a 873e ef0c 87be c528 073e
000002c0: 0d7e 19be aaaf 223e 3f65 7b3e a3dc 92be
000002d0: c9ed e5bd 5305 a33e 7e09 e73d bad8 dabd
000002e0: fadd 5cbe 9131 60be 8be4 9d3c 2271 0c3e
000002f0: 1710 82be caef 613e ea2f 3d3e ae4e 923e
00000300: 1636 4e3e 5d4a 823e e683 d13e 47cc 9abc
00000310: 0e1b b23d 140e 5c3f 7391 063d 40c4 a53d
00000320: 270a c23e e1da 91be 2b0a 6b3d a372 bbbd
00000330: 0fd6 c83e df35 3cbe fb83 d93e 6960 9a3e
00000340: b5c2 113e 4e6d 113d c887 453e 232c f23e
00000350: 4e04 2abf 1836 b0be 0d09 8dbd 205b 84be
00000360: adce 9a3d c039 edbd 889b 38bd 9190 603d
00000370: 3b8c e33e c6ed f1bb 59f2 bc3c 815d 84be
00000380: 66b6 28be 0892 42bf f114 fe3e ea4f 673c
00000390: 1d43 0bbf c36a ce3e 45be 633d 58b5 d939
000003a0: 9442 8abc 4c82 143e 6abe 82bd d914 73bd
000003b0: 729d 3ebe 2828 bd3d 1125 7abd b936 c0bc
000003c0: 8ace 4f3e fd40 07be 9a51 b33c 05bd 873e
000003d0: 73aa 383e 860d 01bc 5762 d5bd 312d d0bc
000003e0: c663 ec3d 4a40 90be 708a 25bd 8b22 1f3d
000003f0: 930a 313e 49fd aa3e f9e1 573d 2acd db3a

network.3.bias f4 [64]
-0.05101796 0.061163735 0.22004159 -0.14702727 0.11457 0.02104615 0.04282348 0.07602349
-0.035165165 0.0035445106 -0.13418418 0.021619236 -0.054424357 0.26162398 -0.11043661 0.13642208
0.15754755 0.007426728 0.13460793 0.05503284 0.07038511 -0.0022388906 -0.08039616 0.13266471
0.10200773 -0.02962363 0.0032700624 0.14627077 -0.030145664 -0.101319864 0.075700045 0.10866723
0.120519005 0.09076298 0.009109291 -0.04581083 0.06775708 0.038446166 -0.07698641 0.1040964
0.14136142 0.01466263 -0.091893695 0.054210257 -0.011833286 -0.037053257 0.06291772 -0.030499991
-0.013197733 0.12337215 0.16653213 0.03424686 -0.3060568 0.04338159 -0.018756712 -0.0072522373
0.0435115 0.22668053 0.15534814 0.032316443 -0.07044523 -0.12328865 0.034669053 0.05174094
00000000: 35f8 50bd d386 7a3d 9552 613e 518e 16be
00000010: ada3 ea3d fa68 ac3c ac67 2f3d 34b2 9b3d
00000020: 5909 10bd 054b 683b 9467 09be d31a b13c
00000030: 13ec 5ebd 94f3 853e 972c e2bd 3bb2 0b3e
00000040: 2554 213e e95b f33b a9d6 093e 1e6a 613d
00000050: 1226 903d 5aba 12bb bea6 a4bd 42d9 073e
00000060: 6ee9 d03d 41ad f2bc 8b4e 563b 01c8 153e
00000070: 0af4 f6bc ca80 cfbd a008 9b3d ed8c de3d
00000080: abd2 f63d f1e1 b93d 233f 153c 23a4 3bbd
00000090: 39c4 8a3d ba79 1d3d 0dab 9dbd 7e30 d53d
000000a0: 0cc1 103e 873b 703c c332 bcbd 930b 5e3d
000000b0: 66e0 41bc 28c5 17bd 01db 803d 1edb f9bc
000000c0: 4e3b 58bc 8aaa fc3d 6687 2a3e 6f46 0c3d
000000d0: 7ab3 9cbe e5b0 313d ada7 99bc 2da4 edbb
000000e0: 1d39 323d f11e 683e 9513 1f3e 3f5e 043d
000000f0: 9745 90bd c27e fcbd 2301 0e3d 4fee 533d

network.6.weight f4 [32, 64]
-0.0949933 0.005447041 -0.1297854 0.17033452 0.18746783 0.3948714 -0.06832907 0.06743491
0.24324639 0.34946924 -0.32596415 0.26185173 -0.090869114 -0.0057079555 -0.13873585 -0.17358182
0.14829905 -0.37528583 0.067870855 0.25937632 -0.11095007 -0.055436816 -0.030412016 0.0939293
0.4188834 0.012609675 -0.15314874 -0.52534676 -0.33007708 -0.16704486 0.8365598 -0.151589
0.23842904 -0.046819646 -0.101618275 -0.37388054 -0.03023072 -0.018906204 0.02676428 -0.10203816
0.010362829 -0.12752841 0.060242254 -0.16608335 -0.8588013 -0.5269302 -0.008641362 0.052491743
0.3597779 0.16611175 0.20262463 -0.05685635 0.062336072 -0.42291695 -0.0017355978 -0.045597605
0.04064039 0.09597099 0.33022487 -0.04512936 -0.094476394 0.056826394 0.008389801 -0.9364872
0.025507927 -0.032865178 -0.13446641 0.1714131 0.05917736 -0.24139653 0.06267436 -0.06813896
0.23141852 0.0731668 -0.379638 -0.053587712 0.19873586 -0.0555974 0.43011668 -0.048306696
-0.09470098 -0.05751609 0.040085636 0.10744881 0.08242702 -0.0055138785 -0.049547125 0.14272939
0.17594258 0.301353 0.392018 0.13149858 -0.42988837 -0.41658017 -0.36425388 0.1146344
0.2454512 0.0050398204 0.054332163 -0.05783091 0.068728 -0.08482892 0.14849061 0.07046375
-0.09875841 0.1674522 0.10721071 0.112707466 -0.006290203 -0.16620614 0.17253968 0.5542053
0.43281326 -0.12044809 0.1395921 0.105435066 0.26149383 0.06168129 -0.06194558 -0.02282186
0.17195457 -0.05306975 -0.0674895 0.2459207 -0.05675182 -0.087878935 -0.820213 0.054403584
-0.029403321 -0.004335898 -0.012262702 -0.6341711 0.09570365 0.00577042 -0.03691421 0.11411423
0.037954815 -0.17350033 -0.5134124 -0.59803647 -0.047932126 0.056135897 0.24751791 -0.18520108
0.32899913 0.11439693 0.10820779 -0.04928077 0.07189631 -0.01667149 -0.094418995 -0.9562088
-0.24677877 -0.0869287 0.12634836 0.5105596 -0.17948961 -0.27980286 -0.31471348 0.052810516
-0.11540105 0.10974948 -0.09061096 0.32145852 -0.5719325 0.08259698 0.12031935 -0.016640274
0.18593274 0.006806458 0.11838704 0.017369308 0.12976868 0.60959274 0.09505002 0.077458635
0.2909789 -0.4611832 0.22089909 -0.057860654 0.33950487 0.15699819 0.028042285 0.075063944
-0.09669332 -0.18345298 -0.61581117 0.2112015 -0.03925329 0.08260651 -0.51161647 0.15471435
-0.0061959466 -0.035322413 -0.102341235 -0.2266936 0.26009774 0.23681636 0.012402751 -0.3425046
-0.5330108 0.21019368 0.107653834 0.23931612 -0.5230169 -0.77011186 0.30465284 -0.514384
-0.3225764 0.01874316 0.316844 -0.91303694 0.15197802 -0.701235 -0.04490184 0.00062365143
0.03548441 -0.56658196 -0.6776562 -0.4317096 -0.3845888 -0.18721668 0.86130065 -0.121772125
0.33637908 -0.52452135 -0.11061257 -0.35043487 0.033124667 -0.47804958 0.22229475 0.07563265
0.040712405 -0.6327543 0.11285947 0.024849202 0.06153272 -0.556691 -0.6079354 0.1488222
-0.40526742 0.03701194 -0.5641264 -0.6014963 -0.029659085 -0.05501902 -0.42660737 -0.06820465
-0.6564265 -0.116844445 0.4379779 -0.098961204 0.089946605 0.057564244 0.2870598 0.032675646
00000000: d98b c2bd 177d b23b 77e6 04be 2c6c 2e3e
00000010: 91f7 3f3e 962c ca3e 1df0 8bbd 501b 8a3d
00000020: 9515 793e a2ed b23e c6e4 a6be 6e11 863e
00000030: 9619 babd cd09 bbbb c510 0ebe 6fbf 31be
00000040: b5db 173e 7725 c0be e0ff 8a3d f9cc 843e
00000050: ca39 e3bd b711 63bd 9f22 f9bc 015e c03d
00000060: e377 d63e cf98 4e3c 06d3 1cbe 207d 06bf
00000070: ddff a8be cf0d 2bbe c828 563f 263a 1bbe
00000080: be26 743e f5c5 3fbd 3e1d d0bd 456d bfbe
00000090: 6aa6 f7bc 2fe1 9abc c340 db3c 62f9 d0bd
000000a0: dbc8 293c cf96 02be 95c0 763d c111 2abe
000000b0: 67da 5bbf e6e4 06bf 8094 0dbc 9501 573d
000000c0: cf34 b83e 3319 2a3e d57c 4f3e 34e2 68bd
000000d0: 1c54 7f3d 9288 d8be 007d e3ba 8ec4 3abd
000000e0: 8a76 263d 708c c43d 3c13 a93e 90d9 38bd
000000f0: d77c c1bd cbc2 683d 6075 093c a0bd 6fbf
00000100: 00f6 d03c a39d 06bd 90b1 09be ea86 2f3e
00000110: f663 723d a730 77be 6a5b 803d 708c 8bbd
00000120: faf8 6c3e 7ad8 953d e95f c2be ca7e 5bbd
00000130: 6a81 4b3e 19ba 63bd 4138 dc3e 3edd 45bd
00000140: 96f2 c1bd fe95 6bbd d630 243d 1f0e dc3d
00000150: 7fcf a83d c4ad b4bb edf1 4abd a727 123e
00000160: 4b2a 343e f14a 9a3e 95b6 c83e 90a7 063e
00000170: 541a dcbe ff49 d5be 7c7f babe 71c5 ea3d
00000180: 8f57 7b3e 1425 a53b 678b 5e3d 1be0 6cbd
00000190: 44c1 8c3d c9ba adbd ec0d 183e 4c4f 903d
000001a0: d941 cabd 9778 2b3e 4a91 db3d 2cd3 e63d
000001b0: 0c1e cebb f131 2abe 3eae 303e 66e0 0d3f
000001c0: b399 dd3e 7dad f6bd 3bf1 0e3e 57ee d73d
000001d0: 85e2 853e 85a5 7c3d a6ba 7dbd e9f4 babc
000001e0: dc14 303e ab5f 59bd ef37 8abd a3d2 7b3e
000001f0: 9974 68bd dff9 b3bd 7bf9 51bf 4bd6 5e3d
00000200: 3cdf f0bc 2614 8ebb 80e9 48bc 0a59 22bf
00000210: 4600 c43d cb15 bd3b 5b33 17bd b9b4 e93d
00000220: 8276 1b3d 12aa 31be ff6e 03bf eb18 19bf
00000230: 7a54 44bd c1ee 653d 5675 7d3e 5aa5 3dbe
00000240: 9372 a83e f048 ea3d 0c9c dd3d a2da 49bd
00000250: 5f3e 933d a692 88bc bf5e c1bd 1aca 74bf
00000260: 93b3 7cbe ad07 b2bd 7761 013e 09b4 023f
00000270: 20cc 37be 5242 8fbe 2022 a1be d74f 583d
00000280: 6357 ecbd 56c4 e03d 3d92 b9bd 3696 a43e
00000290: 2b6a 12bf 9b28 a93d fe69 f63d 2f51 88bc
000002a0: 2765 3e3e b508 df3b e874 f23d 144a 8e3c
000002b0: 15e2 043e 450e 1c3f 96a9 c23d a2a2 9e3d
000002c0: 30fb 943e 3420 ecbe 5f33 623e 4bff 6cbd
000002d0: 95d3 ad3e 22c4 203e efb8 e53c 20bb 993d
000002e0: 2607 c6bd 19db 3bbe cda5 1dbf 3545 583e
000002f0: 0fc8 20bd 9a2d a93d 4cf9 02bf 706d 1e3e
00000300: 5e07 cbbb 3cae 10bd 4898 d1bd 5e22 68be
00000310: 882b 853e fd7f 723e e834 4b3c c35c afbe
00000320: 6573 08bf 033d 573e 9d79 dc3d 490f 753e
00000330: 70e4 05bf 0d26 45bf 75fb 9b3e abae 03bf
00000340: bc28 a5be 418b 993c 6039 a23e cabc 69bf
00000350: 20a0 1b3e 2384 33bf feea 37bd 8a7c 233a
00000360: 1a58 113d 840b 11bf e07a 2dbf 0a09 ddbe
00000370: d3e8 c4be bbb5 3fbe 337e 5c3f aa63 f9bd
00000380: e139 ac3e 0847 06bf d888 e2bd 336c b3be
00000390: bbad 073d eac2 f4be 3ca1 633e 4ae5 9a3d
000003a0: 0dc2 263d 30fc 21bf de22 e73d 8e90 cb3c
000003b0: bc09 7c3d 4d83 0ebf a8a1 1bbf d964 183e
000003c0: 367f cfbe d599 173d 966a 10bf a9fb 19bf
000003d0: 9cf7 f2bc a05b 61bd 486c dabe e1ae 8bbd
000003e0: 910b 28bf 244c efbd a43e e03e 2cac cabd
000003f0: ed35 b83d 7cc8 6b3d 81f9 923e e6d6 053d

network.6.bias f4 [32]
0.235769 -0.0057967687 0.038686857 0.20634466 0.16858366 0.22124176 0.41542828 0.036604967
0.2722434 0.03930944 0.26642883 0.25494018 0.24886182 0.30039123 0.26485497 0.13207866
0.11181269 0.25710967 0.18918036 -0.021585617 0.28436267 0.25156185 0.052292358 0.021625811
0.13649349 0.27174175 0.2806937 0.08374122 -0.055910263 0.2594149 0.38691312 0.22469597
00000000: 6e6d 713e d2f2 bdbb 1c76 1e3d 044c 533e
00000010: 32a1 2c3e 338d 623e 04b3 d43e 17ef 153d
00000020: 7d63 8b3e ef02 213d 5c69 883e 8587 823e
00000030: a2d5 7e3e e1cc 993e 129b 873e a13f 073e
00000040: 0dfe e43d e1a3 833e 7fb8 413e 52d4 b0bc
00000050: fc97 913e b7cc 803e 8330 563d 9d28 b13c
00000060: f3c4 0b3e bc21 8b3e 16b7 8f3e 8480 ab3d
00000070: 2902 65bd 08d2 843e 7a19 c63e b316 663e

network.9.weight f4 [6, 32]
-0.036662925 -0.27960378 -0.78526187 0.50932366 -0.12093463 -0.08366437 -0.021559333 -0.28642073
-0.4975932 0.1181821 -0.028917596 -0.039492313 -0.016606634 0.10146245 0.05454395 -0.32224938
-0.23446126 -0.35225797 -0.03999444 0.05048065 -0.28101602 0.12951194 -0.13368535 0.0033893278
0.45995396 0.05603638 0.6179646 0.025523763 -0.026531093 -0.038616035 -0.08510264 -0.0088246055
-0.5561176 -0.11130215 0.45699733 -0.73765683 -0.3283922 0.0045169643 -0.0055100005 -0.24814813
-0.48937678 -0.0771773 -0.0009658846 -0.019349772 -0.002110338 0.40526426 -0.0022161505 0.056704532
0.37015733 -0.43595472 -0.0004302753 0.059802953 0.1895364 -0.11380722 0.16924606 -0.026583746
-0.89221853 -0.09715482 -0.35660267 -0.10238276 -0.009020533 0.040347375 -0.04441299 0.004727319
-0.087858304 -0.3513845 -0.554459 -0.2711728 -0.100954965 -0.010965242 0.30618367 -0.30726773
-0.19018252 -1.555577 0.023184098 0.080570586 -1.9623237 0.10897421 -0.29651728 -0.25240514
0.22681808 -0.52151144 -2.1051855 -0.00070784823 -0.23458238 -0.2124069 -0.34294823 -1.256346
-0.4074911 0.03009694 -1.1104116 -1.1317252 -1.1255529 -1.590201 0.27101654 0.09892264
-0.3944097 0.15369077 0.07618104 0.028125301 -0.59621304 -0.9022367 -1.651696 -0.049501397
-0.41302624 -2.1222537 -1.4157846 -1.3210818 0.0050081355 0.026421519 0.107164726 0.1012939
-0.32116866 -0.42158332 0.08093108 0.11811832 -0.011121552 -0.0017715581 -0.38295683 -2.1490092
-0.38359755 0.102651365 0.18484397 -0.08704577 -1.8259898 0.057189144 -1.0310376 -0.651422
0.0078005213 -0.21440925 0.25325513 -0.0141161 0.004776046 -0.25329491 -0.008427472 -0.0809544
0.08754529 0.36150286 -0.019803599 -0.015622431 -0.045673944 -0.34041026 -0.50012547 -0.4499545
0.18486403 0.09659285 -0.03828353 0.08248754 0.07036363 -0.2057319 0.12579343 -0.003379264
0.16792394 -0.5224419 0.1331711 -0.30870503 -0.021619694 -0.04474555 -0.19694664 -0.2805981
-0.41733134 -0.05880691 -0.16237867 -0.57573843 -0.15500766 -0.2764111 -0.22583741 -0.36851227
0.1200152 -0.2987435 -0.14694032 -0.1413534 -0.11273011 -0.8609352 -0.21856807 -0.0032778846
0.24141647 0.16289386 -0.16694416 0.090168275 -0.7036632 -1.0784339 -0.49164852 -0.06436077
-0.62849295 -0.2587739 0.12503031 0.117705636 -0.04675839 -0.32155675 -0.15999557 -0.758894
00000000: dd2b 16bd 3a28 8fbe ec06 49bf 0963 023f
00000010: 93ac f7bd 3a58 abbd 339d b0bc bda5 92be
00000020: 89c4 febe 7509 f23d 98e4 ecbc b1c2 21bd
00000030: a30a 88bc 8ccb cf3d 7a69 5f3d dffd a4be
00000040: 9d16 70be 285b b4be 36d1 23bd ccc4 4e3d
00000050: 55e1 8fbe c79e 043e d0e4 08be 7c1f 5e3b
00000060: 167f eb3e 6786 653d ee32 1e3f 3617 d13c
00000070: bc57 d9bc d92b 1ebd 4b4a aebd 1495 10bc
00000080: b95d 0ebf 62f2 e3bd 8efb e93e 14d7 3cbf
00000090: 0623 a8be 0b03 943b 3c8d b4bb 8b1a 7ebe
000000a0: 988f fabe 220f 9ebd 6b33 7dba 6a83 9ebc
000000b0: 994d 0abb cc7e cf3e d63c 11bb 0343 683d
000000c0: 4385 bd3e 7535 dfbe 9396 e1b9 f1f3 743d
000000d0: d415 423e c213 e9bd d74e 2d3e 28c6 d9bc
000000e0: 6f68 64bf 1bf9 c6bd a094 b6be 0dae d1bd
000000f0: dcca 13bc 4a43 253d 65ea 35bd a0e7 9a3b
00000100: 0eef b3bd abe8 b3be 06f1 0dbf 29d7 8abe
00000110: 7ac1 cebd 8fa7 33bc 1bc4 9c3e 3252 9dbe
00000120: 35bf 42be 261d c7bf 94ec bd3c 3102 a53d
00000130: 6c2d fbbf df2d df3d 1dd1 97be 3f3b 81be
00000140: 0043 683e c681 05bf 5cbb 06c0 e48e 39ba
00000150: 5d36 70be 3281 59be e996 afbe f2cf a0bf
00000160: aca2 d0be dc8d f63c f821 8ebf 5fdc 90bf
00000170: 1e12 90bf b58b cbbf aec2 8a3e f497 ca3d
00000180: 11f0 c9be 1d61 1d3e ce04 9c3d 0867 e63c
00000190: 6ba1 18bf fcf8 66bf c66a d3bf fac1 4abd
000001a0: 2d78 d3be 01d3 07c0 6e38 b5bf 3519 a9bf
000001b0: 491b a43b f171 d83c 2e79 db3d 2d73 cf3d
000001c0: 3870 a4be c5d9 d7be 32bf a53d 05e8 f13d
000001d0: 2c37 36bc a033 e8ba eb12 c4be 5e89 09c0
000001e0: e666 c4be e13a d23d bd47 3d3e 0d45 b2bd
000001f0: 09ba e9bf 2a3f 6a3d 0af9 83bf 98c3 26bf
00000200: 849b ff3b 198e 5bbe a8aa 813e 3747 67bc
00000210: 6180 9c3b dfaf 81be 6113 0abc 6ccb a5bd
00000220: f24a b33d e716 b93e 283b a2bc 3af5 7fbc
00000230: 9a14 3bbd 414a aebe 3908 00bf 7060 e6be
00000240: ff4c 3d3e 79d2 c53d 31cf 1cbd 3aef a83d
00000250: cf1a 903d 62ab 52be fecf 003e a476 5dbb
00000260: 41f4 2b3e c1be 05bf 015e 083e 960e 9ebe
00000270: c91b b1bc 1c47 37bd 61ac 49be 8eaa 8fbe
00000280: 74ac d5be 84df 70bd 9846 26be 9863 13bf
00000290: 54ba 1ebe c185 8dbe ec41 67be a4ad bcbe
000002a0: 87ca f53d e8f4 98be 8677 16be f2be 10be
000002b0: 0bdf e6bd 4066 5cbf 4fd0 5fbe c7d1 56bb
000002c0: e135 773e a6cd 263e 69f3 2abe 25aa b83d
000002d0: 4523 34bf 1f0a 8abf 5bb9 fbbe 94cf 83bd
000002e0: eae4 20bf 037e 84be f207 003e a70f f13d
000002f0: ba85 3fbd 16a3 a4be e1d5 23be e146 42bf

network.9.bias f4 [6]
-0.22005637 -0.39854538 -0.14878096 0.33247468 -0.58528596 -1.1811306
00000000: 7556 61be 240e ccbe 095a 18be 1f3a aa3e
00000010: 4dd5 15bf 4a2f 97bf
